edge-detection.tflite (tflite, 241752 bytes, 11 tensors)

arith.constant f4 [16]
00000000: 3217 f9bb 63e9 9f3b 6c98 0f3c 00b9 f83b
00000010: 4a7f 683b e7ec 543d 159b 4bbb fd5b 473d
00000020: 75a7 eabb 6538 17bb 1f30 573d 0425 9c3c
00000030: 28f3 7c3d 1e91 843d f4ad 5b3d a9c0 453d
-0.007601642 0.004880117 0.008764368 0.007590413 0.003547626 0.05198374 -0.0031067778 0.04867171
-0.0071610757 -0.0023074385 0.052536126 0.01906062 0.06175533 0.064729914 0.05363269 0.04827944

arith.constant1 f4 [32]
00000000: db3b 7c3d 1269 bbbb bf87 a03c 34bb a8bb
00000010: 9916 04bc 343e 103d c1c6 0a3d 59c2 dabb
00000020: 625a 4d3d 2a0b 38bc 5421 333d bd92 4ebb
00000030: 60a0 93bb 6362 aabb 6822 1c3c 7c3f 78bb
00000040: bd6e d3b9 4ee8 2b3d 8d51 c4bb e9c9 0f3d
00000050: ae4a 893c 4363 213d 9295 e33c 4a10 f5bb
00000060: f393 3c3d ea32 643d 3a1f c43c 5a92 97bc
00000070: 2bf6 88bb ac28 963c d4f4 403d fe00 2e3d
0.06158052 -0.0057193125 0.019595979 -0.0051492695 -0.008062028 0.03521557 0.033880953 -0.006676
0.050135024 -0.0112331305 0.043732956 -0.0031520568 -0.004505202 -0.005199717 0.009529687 -0.0037879637
-0.00040327563 0.04196959 -0.005991167 0.035104666 0.016759243 0.039401304 0.027781282 -0.0074787484
0.046039533 0.055712618 0.023940671 -0.018502403 -0.004179736 0.01832994 0.047108486 0.042481415

arith.constant2 f4 [64]
00000000: 3df5 18bc e5e8 e83c e4f7 6e3d a3a5 293d
00000010: 803d 103d 0a01 5b3c 21bb f83c 62c8 9a3c
00000020: b8d1 51bc e57f e63c b628 5dbc f267 123d
00000030: f3d2 0f3d fad4 103d 256b 4dbc da11 56bc
00000040: a04e c53c 2cc1 81bc 4d9d 1e3c 6ea0 b43c
00000050: fc2f ccbc 2838 d33c 9127 bebc ea82 86bc
00000060: 7cfd 993c b889 3a3d 68ca a3bc 2d2c 413c
00000070: d63e da3c f1eb 95bc bb7e 31bc 2b54 f33c
00000080: f4e1 b23c 93cf 23bc f6e6 313c ffdd 00bc
00000090: 2763 25bc a310 8bbc eee2 26bc 2070 0d3d
000000a0: b777 043d eac7 f83b 51ff 1e3c 06d7 013d
000000b0: 8b77 a23c 6a2e b53c 8b34 263d 992a ce3c
000000c0: 617b b8bc 0de3 323d 980c 7fbc c405 b0bc
000000d0: e0fa bbbc db69 a7bc aa72 97bc 3fd5 27bc
000000e0: 18c7 26bc 1af8 37bc 1656 68bc e330 8fbc
000000f0: 27b1 813d de49 27bc 98cf c6bc a427 63bc
-0.009335813 0.028431365 0.058341876 0.04141773 0.0352149 0.013366947 0.030362668 0.018894378
-0.0128063485 0.028137157 -0.013498476 0.03574366 0.035113286 0.03535936 -0.012537752 -0.01306578
0.024085343 -0.015839182 0.009681058 0.022049155 -0.024925224 0.025783613 -0.023212226 -0.016419847
0.018797629 0.045541495 -0.019993976 0.0117903175 0.02664129 -0.018300982 -0.010833438 0.02970322
0.021836258 -0.00999822 0.010858288 -0.007865428 -0.010094441 -0.016975706 -0.01018594 0.03453076
0.03234073 0.007592191 0.009704427 0.031699203 0.019832393 0.022116859 0.040577453 0.025166797
-0.02251977 0.043673564 -0.015566967 -0.021487124 -0.022946775 -0.020436218 -0.018487293 -0.010243713
-0.010179304 -0.011228586 -0.014180681 -0.017479366 0.06332617 -0.010210482 -0.02426891 -0.0138644315

arith.constant3 f4 [32]
00000000: 203f 5abc 35f9 27bc 84ca 36bc 51e0 7bbb
00000010: daa1 9dbb bbd4 d23c b82d 13bc c6a2 14bc
00000020: 4ad7 82bb 7380 6b3d ed3e 133b 0abc c83b
00000030: 23af 2b3d 99f1 013d 4f49 55bc d510 96bc
00000040: 044c 4abc 6453 1fbc b3cb 81bc 66eb b53c
00000050: a38f 283b 9721 aabc 0c00 d33c 5945 fb3c
00000060: a9c6 503d ab98 e0bb 6913 97bc 7f3d 20bc
00000070: 0c5d 33bc 07f5 aa3c a51f 0fbb 89d5 133d
-0.013320714 -0.010252287 -0.011156682 -0.0038433264 -0.004810554 0.025736203 -0.008983068 -0.009072011
-0.0039929496 0.057495546 0.0022467927 0.0061259316 0.04191507 0.031724546 -0.013017966 -0.018318573
-0.012347225 -0.009724472 -0.015844202 0.022206973 0.002572038 -0.02076797 0.025756858 0.030672716
0.050970707 -0.006854137 -0.018441873 -0.009780287 -0.010947477 0.020868791 -0.002183893 0.036092315

arith.constant5 f4 [1, 1, 1, 16]
00000000: d95b 443e d11c f73e 4b6c 033f 4b24 053f
00000010: ee55 c33e 221b 86be 3325 993e cb7d 13bf
00000020: a867 263f 6a59 1e3e dd8d f6bd aec2 abbe
00000030: dc2a 27bf 9b90 ecbd 71a5 acbe 2b9c 0cbf
0.19175662 0.48264173 0.51337117 0.52008504 0.38151497 -0.26192576 0.29911193 -0.5761382
0.65001917 0.15463796 -0.12038777 -0.33546966 -0.65299773 -0.11551019 -0.33719972 -0.54925793

arith.constant6 f4 [16, 3, 3, 48]
00000000: 6752 b43c cb58 aabc afb2 edbd e6eb b63c
00000010: 90f8 cebd aef7 c1bd c3d8 18bd f7ce 01bd
00000020: c466 9e3d 3482 82bd d333 77bd 5c5b c63c
00000030: 562b 0e3c e9f8 563c f34b cebd ebca 483d
00000040: f8f0 dfbc 32cb 5c3c 499c 073e 5abe 1dbd
00000050: 0505 003c 1f70 893d 6bda 923b 3014 643d
00000060: 36d6 9cbd da9a ebbb d795 e33d c76e dabc
00000070: 9008 e33d ac0d 23bd 23f0 10be f5d3 ebbb
00000080: 50d7 28bd e820 0d3e 908c 2e3e bac9 693e
00000090: ff78 d43d b814 bb3c 4223 df3c 2a70 01be
000000a0: 0140 a2bb 2e09 853e d89c 963e fad4 abbd
000000b0: a288 92bd 2921 cdbd 968a 743d 24f4 203c
000000c0: a77b a3bd fbad 2d3d 6d0a 7c3d 3602 f33d
000000d0: 65cb 54bb 6b93 25be 5e81 59bc 3da6 97bd
000000e0: 3a68 b43d ca3a ec3c 9be8 fbbd a14d 363d
000000f0: 273e b93d 1110 213d 068f 6f3a 0f89 f93d
00000100: 1e48 bf3d 8d36 a2bc c672 bbbb 1775 5b3c
00000110: e65e 87bd 486e 183d c738 f6bd 9d7b f73d
00000120: 4d12 afbd e1e7 dcbd eca3 a73d 645a b33d
00000130: 6bb6 f73d 7658 b8bd 466f e3bd 32f8 33bc
00000140: ba9d 03bd 1e65 6b3e 9a6a b23e 5a72 973e
00000150: 980a 963e ed85 853e d24d 0f3c 9099 c13c
00000160: b685 683d 4f1b 873e 6754 633e 467c 75bc
00000170: 1845 f53c 6d94 bc3d ae52 e13c 8bb9 423b
00000180: d676 703c f776 123d 81fa 093d 47e5 4339
00000190: 69ee ecbc d099 95bd 05cf b3bd 9dd6 c23d
000001a0: 7eb3 13bc 02dc 033e 7070 cfbd bbbe 273d
000001b0: 5b3a 0cbc f1d6 94bd 9d5b bc3d 4b09 933d
000001c0: d957 6fbd 8331 05bc 230a 0a3d f63f 163b
000001d0: 5970 d7bc 730d d6bd b124 37bc 8a4b 96bd
000001e0: 4f79 3fbd 02d9 e5bd b300 8f3d 8ef9 093d
000001f0: a6f4 e53d a194 08be cf2e 1fbe 3e0b b83b
00000200: 682a 8d3d 6d11 a93c 5ea8 333e ef2d a73e
00000210: 7227 393e 9117 563e 84e3 04be 34ad 17be
00000220: c5ae 8ebc 7bbd 833e 8475 84bd c761 afbd
00000230: 50df 9fbd 2d89 26bd 2565 8a3d 4f1d f53d
00000240: 0b4c 03be 9c6a e3bc 6c3a 28bd faa2 f43d
00000250: 409d c23d 671c f4bd 924b 9cbd 6ab1 bdbd
00000260: 275e e5bb 10a1 42bc 68cb 5b3d c73f 93bd
00000270: c314 b53d 67fb e23d 836f 99bd 08e4 c13c
00000280: a369 7a3d d9b0 debc 9836 6d3d 94f8 763c
00000290: 6dcc c9bc 991d c1bd 4d23 b7bd 6bfd 003e
000002a0: c557 4fbe 123d f23c 39d7 d73c dc76 bcbd
000002b0: f7be 773d 19ed 0f3e d0b3 8dbd 14d3 f1bd
000002c0: 90a0 f03c 59bf 953e 87fb 7b3e 5d72 3e3e
000002d0: d8ba 823e a3fa c43d 72ab 833e 1200 ea3d
000002e0: 0e6a 623d 2126 3d3c 7f68 623e fa9f 743c
000002f0: deb7 d2bd 956c fa3d ebbf a0bb 5984 57bd
00000300: 693d 2abe 7098 a53d 4ce9 03bc 8175 933d
00000310: e24b 29bd 41c0 ecbc e71c 7ebd f34c 87bd
00000320: 89e7 acbc 7cd2 293e f90a e6bc fd7f a23d
00000330: 45d4 f63c 9a4b 1bbb 8ceb 723c 5d7b a139
00000340: 8bf3 29bc 8340 ba3c 0490 943c 7f4a 89bd
00000350: 3b1e 35bd 2753 f53c e994 13bd 9258 133e
00000360: 8083 35be 81dc 2bbc 6150 dd3d 44e4 f33b
00000370: 6ccd 2fbd 5d8f 3ebd 0e62 54be b67c 26be
00000380: f341 78bd f57c a53e 5cd6 b73e f6cf a93e
00000390: ae79 d33e cac0 a53e 075d 5c3e 2bac da3e
000003a0: fb78 e9bc 429a 803e 2608 983e 168f b93c
000003b0: 21a6 97bd 9df5 e93d aae1 2bbd da8d ca3d
000003c0: d74e 5abd 6eca ca3c d610 01be 304d 59bb
000003d0: 6d76 913d c840 5bbd 89ff 12be de62 c03a
000003e0: e00a 01bc 1b82 8bbc 6948 f1bb 4c6a 6b3c
000003f0: 5088 95bc 4139 023e d4a1 dc3d 5a0f f23d
0.022011949 -0.020794293 -0.11606347 0.022329282 -0.10106003 -0.09471069 -0.037316095 -0.031691518
0.07734445 -0.063724905 -0.060352158 0.024213485 0.008677324 0.013120868 -0.1007308 0.049021643
-0.027336583 0.01347618 0.13243212 -0.03851161 0.007813697 0.067108385 0.004481604 0.055683315
-0.07658045 -0.0071900906 0.11112564 -0.02666415 0.110856175 -0.03980796 -0.14154105 -0.007196898
-0.041220963 0.13782084 0.17045808 0.22830859 0.10374641 0.022837028 0.027238492 -0.12640443
-0.0049514775 0.25983566 0.29416537 -0.083902314 -0.07154967 -0.100160904 0.05970248 0.009823833
-0.07982569 0.04240225 0.06153338 0.11865656 -0.0032469865 -0.16169517 -0.013275472 -0.07404754
0.08808942 0.028836627 -0.12300225 0.044507626 0.09045058 0.039321963 0.00091384386 0.12184345
0.09339927 -0.019801402 -0.005720469 0.013394616 -0.06609897 0.037214547 -0.12022548 0.12084124
-0.085484125 -0.10786415 0.081855625 0.08757475 0.1209534 -0.090012476 -0.11105208 -0.010984467
-0.03213284 0.22987792 0.34846956 0.2957943 0.29304957 0.2607874 0.008746581 0.023632795
0.05676814 0.26388022 0.22200166 -0.014983242 0.029940173 0.092079975 0.027505245 0.0029712643
0.01467677 0.035757985 0.033686165 0.00018682062 -0.028922277 -0.07304728 -0.0877972 0.095135905
-0.009014962 0.12876895 -0.101288676 0.04095338 -0.008558835 -0.07267559 0.09197161 0.07179507
-0.058433387 -0.00812948 0.033701073 0.0022926307 -0.026298689 -0.10451784 -0.0111781815 -0.07338627
-0.04674655 -0.112230316 0.06982555 0.03368526 0.112283036 -0.13337947 -0.155452 0.0056165745
0.06892854 0.020638192 0.17544696 0.32652232 0.18081453 0.20907427 -0.12977415 -0.14812165
-0.017417321 0.257305 -0.06467727 -0.085635714 -0.07806265 -0.040658165 0.06757573 0.11968481
-0.12821977 -0.027760796 -0.04107134 0.11945148 0.09502649 -0.1191948 -0.076316014 -0.09262355
-0.006999749 -0.011879221 0.05366078 -0.07189899 0.088418506 0.110831074 -0.07491972 0.023668304
0.0611359 -0.027183937 0.057913393 0.015073914 -0.02463361 -0.094294734 -0.0894228 0.12596671
-0.20248325 0.029570136 0.026347743 -0.09202358 0.060484853 0.1405529 -0.06919062 -0.11807838
0.029373437 0.2924755 0.24607669 0.18598314 0.25533175 0.09618118 0.2571674 0.11425795
0.055276923 0.011544735 0.22110175 0.0149307195 -0.10288976 0.12227742 -0.004905691 -0.05261645
-0.16624989 0.08085716 -0.008051228 0.072001465 -0.041332133 -0.028900268 -0.062039282 -0.06606474
-0.021106498 0.165842 -0.028081404 0.07934568 0.030130515 -0.0023696185 0.014826667 0.00030800226
-0.010373007 0.02273584 0.018135078 -0.06703662 -0.044218283 0.029946877 -0.036030684 0.14389256
-0.17725945 -0.010489584 0.10806347 0.007442983 -0.042920515 -0.04652344 -0.2074053 -0.16258511
-0.06060977 0.32321897 0.3590573 0.33166474 0.41303772 0.3237365 0.21519862 0.4270948
-0.02850007 0.2511769 0.29693717 0.022651237 -0.074047334 0.114238 -0.041963257 0.09890337
-0.053297844 0.02475473 -0.12604079 -0.003315758 0.07102666 -0.053528577 -0.14355291 0.0014677902
-0.007876128 -0.017029813 -0.0073633683 0.014368605 -0.018253475 0.12717153 0.10773054 0.11819334

arith.constant7 f4 [32, 3, 3, 96]
00000000: 95fa 0bbd 430d cfbd 2e53 c3bb 0231 c8bb
00000010: 3f3b a03d 1a86 d53b cfe0 8c3c 4ec1 16bc
00000020: d3cb b93c 4230 413d 7d82 3e3d 9f0a 3dbd
00000030: 095b d8bb 9068 263d b16a 0dbd caad dbbc
00000040: 4a8e 063d 8664 9d3d ddfb edbc 5aa6 273d
00000050: 86a8 e43c 2fe0 b83c 82fc ae3a 60d1 ba3c
00000060: cb74 18bd cfb9 623d e9b4 d6bc 519b 14bd
00000070: b3e9 df3d fdc6 1f3c bfaf 8ebd a318 8bbd
00000080: c554 0c3d 5675 5fbd 3aa8 1a3e 7314 ff3b
00000090: 7663 633d a6a8 a93d 3706 25bc a88a 403d
000000a0: c908 d23d f19b b43c 043d 7abd b991 d53b
000000b0: 1462 3d3d c779 4bbc 146e 5e3c a831 35bd
000000c0: cff1 5a3c 4601 163e 4fcf dc3c 054c a5bd
000000d0: 80a9 3b3d c94c 04bd 8a3f 25bd 8744 893c
000000e0: 6d1d 09bc 10ca 043c c501 3ebc 393a 3dbd
000000f0: 384c 833d 61ff 7d3b e1ec f7bc 235b 543d
00000100: 70e0 78bd 695d 333d dcb5 a6bd 93b7 183d
00000110: f296 2d3d 9925 16bb 6644 af3d 00ed 96bd
00000120: 603a f33d c40b 57bd ac10 523d 9235 3cbd
00000130: 90c1 863d 8a31 ccbd fd27 88bd 61eb 1dbd
00000140: ec2a 3abd 44bc b93c f4af 0a3c 94cc 7c3d
00000150: 5c7c a13c 39b4 70bd 7d05 d83d 00bc 873d
00000160: 31fc 763d 6c92 a4bd 626b ea3d 7c21 773e
00000170: d646 51bd a256 4fbd 738d 91bd 83b3 463d
00000180: 2dc8 8abd fb43 cdbd b37e 8cbd 6a9d 6c3d
00000190: abf9 c93c 5830 7ebd 06ed e13c ba63 1d3d
000001a0: d286 89bd 05d0 f53c a4ce fa3c b820 843d
000001b0: 0f3a fc3d ea5c 0e3d d807 623d e622 083d
000001c0: 7fb0 3abd 232d 78bc 4963 703d f37b 0e3d
000001d0: ada9 e5bc 72bb 113d 41f4 153d 5bde 36bd
000001e0: a7bb 33bc a70c 953d 777f 2e3c d9ae 843d
000001f0: 91ef 0b3e bb9f 923d 5d79 893d 369e 4b3d
00000200: 088f 0cbc 383c e3bb 85c7 673e c9af a23b
00000210: 60f6 033c d820 1bbd f1cc 733d 9313 2e3e
00000220: 8471 963c fac7 203d 39e3 88bd 0d86 b43d
00000230: a9c3 923d 54a0 2fbd 9551 8f3c bcc4 8b3d
00000240: ffe3 1ebd 6bd7 313d 737f d03d 7f91 84bd
00000250: 315a 11bd c9ca 453c b3cc 4c3c 0739 1b3c
00000260: 0ff3 a239 c27b 1dbb c56d bebb 967e b0bb
00000270: 7411 f73d ce3f ad3b 218e 10bc 2927 643b
00000280: 914f 9a3d 577b aabd 2127 b9bd 38dd ac3d
00000290: 2690 a83d 5f7f 7d3d 43c2 06bd 3132 953c
000002a0: 8de8 613a 39f5 0cbc 91a5 78bd 56c6 d53d
000002b0: 5c1a dcbd 0ffb 12bd 138f 28bd 6433 553e
000002c0: f921 91bc 12a0 f9bd 40db b93c 328e d23d
000002d0: 9626 dcbc c6dd 16bb c465 6cbc 5e57 373c
000002e0: f16a 913d 8d1b 7bbb 30de e9bd d1ca 82bd
000002f0: a5a0 34bd 850c b8bc 89de c1bd b21a af3c
00000300: 18a3 fbbc 16d3 b3bc 5486 21bd 0d89 a13d
00000310: 6ad7 86bd 8908 033d 7e52 473d 6138 b13d
00000320: 344d 853d 3652 103d d536 4f3d 58e4 a8bb
00000330: 7736 bd3d aadd 893c b273 3c3b ae0c 7abd
00000340: 2df2 96bc 3a1d 7f3d c5aa 6c3c ec8c 84bd
00000350: 5b22 a1bd 25a1 8d3d 6492 093d 0b86 b5bc
00000360: 505d 7fbd 6c67 9d3c f28a f3bc 9d89 0c3d
00000370: 99d7 343d 9731 cf3c 7f78 68bb 23fc 5a3d
00000380: 00d1 9bbc 471f 49bd 2ba2 283e 6bee 693c
00000390: 0799 c73d 6583 c13d 2dde b9bc c269 2e3e
000003a0: 76e0 debc 4aff c13d b7ff d73c de61 193e
000003b0: 3269 ba3b e1ad 95bc cbd0 cd3b 1e5c 033a
000003c0: e2ab f9bc a4f4 1a3d fa1b 72bc cd5e f23c
000003d0: 62db 8c3d 72e1 623d 2e7b b7bc ae5c 8c3d
000003e0: 617f 02bc 5334 6dbc d33e 653c 1090 cabc
000003f0: 2e22 323e 7a7b cbbc fe67 c23d 61cf 8dbc
-0.03417452 -0.10109951 -0.0059608435 -0.006109358 0.078238 0.0065162303 0.01719704 -0.009201361
0.022680199 0.047165163 0.046511162 -0.046152707 -0.006602649 0.040627062 -0.034525577 -0.026816268
0.03285054 0.07685189 -0.029050762 0.04093013 0.02791239 0.022567837 0.00133504 0.022804916
-0.037220757 0.055352982 -0.026209312 -0.036280934 0.109332465 0.009752032 -0.06967115 -0.067918085
0.03426053 -0.05455526 0.15103236 0.00778442 0.055514775 0.0828412 -0.0100722825 0.047007233
0.10255582 0.022047015 -0.061093345 0.0065176156 0.046236113 -0.012419171 0.013576049 -0.04423681
0.013363316 0.14648923 0.026954321 -0.0807114 0.045815945 -0.03229979 -0.0403438 0.01675631
-0.008368832 0.008104816 -0.011597102 -0.046198104 0.06411022 0.0038756954 -0.03026432 0.051844727
-0.060760915 0.043790255 -0.08140156 0.037284445 0.04238028 -0.0022910594 0.08557968 -0.07369423
0.118763685 -0.052501455 0.05128543 -0.045949526 0.06579888 -0.09970386 -0.06648252 -0.038554553
-0.04545109 0.02267278 0.008464802 0.06171854 0.01971262 -0.058765624 0.10547922 0.06627655
0.060299102 -0.0803574 0.11446263 0.24133867 -0.051092945 -0.05061973 -0.071070574 0.04851104
-0.06776462 -0.10022732 -0.068601035 0.05776731 0.024655184 -0.062057823 0.027578842 0.038425185
-0.06715168 0.030006418 0.030616112 0.06451553 0.12315761 0.03475658 0.05518326 0.033236407
-0.045578476 -0.01514748 0.058688436 0.034786176 -0.02803501 0.035579152 0.03660989 -0.04464565
-0.010970033 0.07277804 0.010650507 0.06478662 0.13665606 0.071593724 0.06712601 0.04971143
-0.008579023 -0.006934669 0.22634704 0.004964803 0.008054346 -0.03787312 0.05952162 0.16999654
0.018364675 0.039253213 -0.06683964 0.08814631 0.071662255 -0.04287751 0.017494956 0.068246335
-0.038791653 0.04341833 0.10180559 -0.06473064 -0.035486404 0.0120722735 0.012499976 0.009474046
0.0003108014 -0.0024030064 -0.0058114254 -0.005386184 0.12063876 0.005287147 -0.008822949 0.003481338
0.07534707 -0.083243065 -0.09040666 0.08440632 0.08230619 0.06188905 -0.032900106 0.01821241
0.00086177216 -0.0086033875 -0.06070477 0.1043822 -0.10747215 -0.03588396 -0.04115207 0.20820385
-0.017716395 -0.12188734 0.022687554 0.10281028 -0.026873868 -0.002302037 -0.01442856 0.011190264
0.071004756 -0.0038315982 -0.11419332 -0.063863404 -0.044098515 -0.022466907 -0.09466273 0.021375034
-0.030717418 -0.02195124 -0.039434746 0.078874685 -0.06584056 0.03199056 0.048662655 0.086533315
0.06508866 0.035234652 0.0505894 -0.005154174 0.09238904 0.01682933 0.0028755483 -0.06104725
-0.018426025 0.062283732 0.0144450115 -0.06472191 -0.07867881 0.069155015 0.033586875 -0.022158643
-0.06234485 0.019214354 -0.02972934 0.034310926 0.044150922 0.025292201 -0.0035472212 0.053463113
-0.019020557 -0.049102094 0.16468112 0.014278035 0.097459845 0.0944889 -0.02268895 0.17032531
-0.02720664 0.09472521 0.026367052 0.1497874 0.00568881 -0.018271388 0.0062809936 0.000501098
-0.030477468 0.037830964 -0.014777178 0.02958622 0.068777815 0.055390783 -0.022397604 0.06853615
-0.00796494 -0.014477807 0.013992029 -0.024726897 0.17395851 -0.024839152 0.09492491 -0.0173108

arith.constant8 f4 [64, 3, 3, 32]
00000000: 8a35 cfbb dd2c 3bbc 3618 0dbd 1291 ee3c
00000010: adbb 9ebd 0203 7abd dd45 583c d8fa 81bd
00000020: 7fb1 d6bc 7b8b 393d 275b f338 c856 b43d
00000030: c19a 2abd 47cf b5bd 32e7 38bd 2aba 993d
00000040: 0aad 3cbc fe57 cb3c 6e33 25bc a483 1bbd
00000050: 39e3 ab3c 6806 5fbc d309 00be 0920 943d
00000060: 30d2 d03d 0659 4a3d 1aba a63c d850 b23d
00000070: 259d 7a3c 58c4 28bb 4967 68bc 93be 15bd
00000080: 6e62 3e3d 7c2d 97bd 93e1 e43c a556 31bd
00000090: dd92 803d 0894 a83b 6445 19bd 879b 61bc
000000a0: 1760 09ba 1820 78bd e7b9 44bd 82a6 82bc
000000b0: fcb1 cbbc 69e1 26bd fc6e 47bd a77b 013d
000000c0: 174d c5bc 07fc 1dbd 69c6 80bd 2a63 6f3c
000000d0: d127 0dbd 50ea 20bd acee 8fbd e33a 33bd
000000e0: f9df 07bd dccf 17bd 5fb3 4bbc 2bfa 8f3d
000000f0: dceb 42bd 139a 3fbd 0151 9bbd 57f1 7cbd
00000100: bb75 893d bba0 aabd fb50 8f3d b6fc 353d
00000110: db44 d6bc c9f2 e63c 6f98 8a3d e6aa 22bd
00000120: 83d0 9dbd a7b4 9e3a 93be 8dbd 32b7 6a3d
00000130: e706 203d 6c56 5abc 0a9c 6dbb 1dd8 fcbc
00000140: 7703 a2bc a5a2 783d 2aae fd3c 3297 bebc
00000150: aad4 e83b c988 b73d ec8e be3a 9eac f53c
00000160: d32d 2abd 150d 57bd e628 7abc 1490 30bd
00000170: d127 0abc adb4 9f3a bb46 b8bd c3ab 6ebd
00000180: 28be 293d 7891 bbbd 47c8 873d 2fa9 f3bc
00000190: c746 873d dbfd 653a 01a7 8c3d 0cd0 993d
000001a0: a116 2e3d 0acf aabd b5f1 acbd 8cd0 f5bc
000001b0: fd3a 56bd f9c7 81bc e794 c73d 7d83 51bd
000001c0: 7e19 293d d478 3f3d 11f2 193d ea97 073d
000001d0: 6c61 9a3c 66e2 7f39 0858 82bd 23f5 903d
000001e0: fe22 283d 5391 5b3d 1e7c 43bd 38a9 2cbd
000001f0: 03d1 ad3d 6b03 383c 3309 02bd c2f2 bdbd
00000200: 4ebc dfbc 5eed 963d 12d1 053e c736 963d
00000210: 482e 733c 9130 03bd 12ce ed3d e54a 303c
00000220: a7d7 8ebc 5c44 10bd 1467 f7bc 0d16 d03c
00000230: 9128 7e3d d02b 35bd 763d 193d b778 53bc
00000240: 6f8f 4a3c 70de 33bd 9603 c83c 6248 013d
00000250: 9823 593c a163 10bd 72f0 123d d06a 8c3d
00000260: b1e0 91bd f03e 483c ac6d e73b 9f50 ab3c
00000270: ce83 5ebd 33e9 113d 1147 b2bc 33c0 493d
00000280: 0de3 873c 87c3 0d3d 82d2 003d a8a0 943c
00000290: 924d 5ebd 6143 cb3c 9d27 223d b5b2 efbb
000002a0: 0a4d 783d e8e3 43bd 8c57 8e3d b2e6 ab3d
000002b0: 7638 0bbc 2ef0 083d 6458 073c 1130 12bd
000002c0: 5487 a43d 5541 c83d 74ae 27bd 8f03 b7bc
000002d0: a0f4 453c d843 503c 6f93 c2bd 21cd 32bd
000002e0: 287f 4d3d aa80 5cbd e5bb 03bd 791d a63d
000002f0: b4df 8abc 8d43 6a3d 2c91 88bd 47e5 bbbc
00000300: f7e5 bcbc ecc3 a9bd 5dbc e33a 3927 a1bd
00000310: 4796 4c3d 4426 b03c 3980 0a3c a41f 23bd
00000320: 3b7a b23c 97ed 25bd 4242 483d 0d24 3cbd
00000330: a1a6 6ebd cf82 b8bd 0cfc 833c f714 41bd
00000340: 9730 c63c 7b42 43bd 1c42 cdbb 7dd4 0ebd
00000350: cdd6 dcbc 153b 9f3c 7833 05be ab1b c33b
00000360: d0ae 49bd f706 2fbd 0b8f 89bd d969 a63d
00000370: aeca 75bb 1047 7b3d 1e22 c3bd 367c 3cbd
00000380: 15de 913d 7ebc 9d3d 596b 8d3d 7d37 39bd
00000390: bcde 593d 00c1 243d d123 133d 4a43 fe3c
000003a0: 2efe a93d d462 ce3c 54e0 2b3d dec0 483c
000003b0: 190e b0bc 86f1 b1bc 1840 653d 1f2a 823d
000003c0: 3f57 843d 0827 853d c739 4ebd 4e8e 783b
000003d0: 9a99 8a3d 84ab d73d e781 fd3b d7f6 2bbc
000003e0: cf81 4f3d 5593 65bd 2332 113d 8076 623d
000003f0: eda2 e33c 395b cfbc 9962 8fbd fa3d 303d
-0.006323521 -0.01142427 -0.034446917 0.02912191 -0.0775064 -0.061038025 0.01320025 -0.06346673
-0.026207684 0.045299035 0.000116041214 0.08805615 -0.04165149 -0.08877426 -0.04514236 0.07506211
-0.011515865 0.024822231 -0.010083063 -0.03796734 0.020982372 -0.013612367 -0.12503748 0.07232673
0.1019634 0.049401306 0.020352412 0.08706826 0.015296255 -0.0025751796 -0.014184781 -0.0365587
0.04648059 -0.07381722 0.027939593 -0.04329552 0.06278012 0.0051446 -0.03741969 -0.013769991
-0.0005240454 -0.060577482 -0.048028853 -0.015948538 -0.024865143 -0.04074231 -0.048689827 0.031612065
-0.02408461 -0.03857043 -0.06287844 0.014611045 -0.0344618 -0.039285958 -0.07027945 -0.04375733
-0.03317258 -0.037063465 -0.012432902 0.07030138 -0.047588214 -0.046777796 -0.0758381 -0.061753597
0.067119084 -0.08331438 0.06997868 0.044430457 -0.02615588 0.02819194 0.06767356 -0.039713763
-0.07705786 0.0012108282 -0.06921115 0.057303615 0.039069083 -0.013326269 -0.0036256337 -0.03086477
-0.019777043 0.060701985 0.030966837 -0.023265455 0.0071054297 0.089616366 0.0014538444 0.029989537
-0.041547608 -0.05250271 -0.01526854 -0.043106154 -0.0084323445 0.0012184583 -0.08997866 -0.058269273
0.041441113 -0.09158605 0.06629997 -0.029743759 0.066052966 0.0008773484 0.06867791 0.07510385
0.04250205 -0.08340271 -0.084445395 -0.03000667 -0.05230235 -0.015842425 0.09745198 -0.051150788
0.041284077 0.04674609 0.03758437 0.03310386 0.018845282 0.00024403035 -0.06364447 0.07078006
0.041048996 0.05360539 -0.04772579 -0.042153567 0.084871314 0.011231284 -0.031747054 -0.09274818
-0.02731147 0.07369493 0.13068035 0.07334667 0.014842577 -0.03202874 0.116115704 0.010760044
-0.017436815 -0.035221443 -0.030200519 0.02540114 0.062050406 -0.044231236 0.03741213 -0.012907199
0.012363299 -0.043913305 0.024415772 0.03156317 0.013253115 -0.035251264 0.035873838 0.0685631
-0.071229346 0.012222037 0.0070626345 0.020912467 -0.054324917 0.035622787 -0.021762403 0.04925556
0.016587758 0.034610298 0.031450756 0.018143013 -0.054273196 0.024812402 0.03958856 -0.0073150047
0.060620345 -0.04782477 0.06950292 0.08393611 -0.008497348 0.03343218 0.00826082 -0.03569037
0.08033624 0.09778086 -0.040937856 -0.022340564 0.012082249 0.012711488 -0.09500777 -0.043652657
0.050170094 -0.05383364 -0.032161612 0.0811109 -0.016952373 0.057193328 -0.06668314 -0.022936476
-0.023058875 -0.08289322 0.0017374862 -0.07868809 0.049948003 0.021502621 0.008453422 -0.039825097
0.0217868 -0.040509786 0.048891313 -0.04593282 -0.05826438 -0.09009325 0.016111396 -0.047139134
0.024193091 -0.047670823 -0.0062639844 -0.034870613 -0.026957894 0.019437352 -0.13007915 0.005954226
-0.04923898 -0.04273125 -0.067167364 0.081256576 -0.003750484 0.061347067 -0.09527992 -0.046016894
0.07122437 0.07701968 0.069052406 -0.045218933 0.05319093 0.04022312 0.03592283 0.031037945
0.08300434 0.02519361 0.041961983 0.012253014 -0.021491097 -0.021721613 0.055969328 0.0635569
0.06461953 0.06501585 -0.05034807 0.0037926617 0.067675784 0.10530761 0.007736433 -0.010495863
0.050660904 -0.05604871 0.035448205 0.05528879 0.02778765 -0.025312053 -0.07001228 0.043027855

arith.constant9 f4 [32, 3, 3, 16]
00000000: 7d14 543a e6c5 8cbd 1261 06be dab5 37bd
00000010: 0706 42be d958 61be 40c0 c4bc 15f0 bfbd
00000020: e21e 903d 01f2 80ba ec88 8e3d 3b43 a63c
00000030: 65e7 0e3c c6b9 653d fd6c b3bd 7ee6 6abd
00000040: f9ed b1bd 02e3 233e c9e6 ecbd 9f6d 3d3d
00000050: 5ef1 02bd 904e 05bc 27cf 85bd 6d67 7fbd
00000060: 60e2 3cbd ee14 153d bda8 213d b9b2 883d
00000070: 449c d3bc be16 a1bd 077e b6bc b696 d1bd
00000080: ccf5 d53c 424d cebd 8378 05be bc05 d23d
00000090: 06ea 17bd b5d5 0b3d 2430 03be 1bc4 6bbe
000000a0: a539 e23c 954c 043e 3f16 58bb d0ef d2bd
000000b0: a20a 55bd 85a3 dc3d 43f5 4b3d 9c27 ab3d
000000c0: 9f22 a73d dd29 6fbd 8e85 883d 2144 65bd
000000d0: f93c 6b3d c243 96bb 04ac 8bbd 8cd3 33be
000000e0: 0c36 bd3c 0029 73bd 43c0 8ebd 3252 0e3d
000000f0: 164d 503d 5cf7 603d 85be b83d 1bbc 9cbc
00000100: 601a 8cbd 6a6d e73d 5b22 053d 9817 863d
00000110: 8187 363d f8b4 e63b 9f8b f3bc 0f75 d7bd
00000120: ae56 bcbd dd80 c43d 0853 303e c059 f93d
00000130: 7e1c 8b3d 8306 503d c225 c73c ff10 553d
00000140: fdf4 9e3d 7d43 7abc fda2 f13c a490 043e
00000150: 0695 23bc 52ba 2a3e 57e2 85bd 19bd c93c
00000160: 03e8 973d 5139 193e a4b2 8abd a23e af3d
00000170: 5c1c 8d3d 9f0e f2bd 1502 8abd e55a be3c
00000180: e678 f1bd 27a0 37bd 4fd0 21be 62fe 24be
00000190: cb24 9fbd ec74 27bc 2002 6abd d98a 81bd
000001a0: d297 5b3c 9347 60be 3c1a 823d 41ed 8ebd
000001b0: 9c89 48bd 840a bb3d b79e 88bd fd61 63bd
000001c0: c715 62ba 7296 83bd 382a afbd 2c16 343c
000001d0: f2d7 133e 7992 373e a9b2 68be 3302 ecbd
000001e0: bd1d 4ebd c3be dfbd 3492 d0bc 3ab9 933d
000001f0: d928 5dbd 7883 803c 48c7 083d a213 78bc
00000200: 0ebe 8cbd dfc8 6e3d d175 c13c 07b5 25bd
00000210: 89cf 04bd f789 843d a547 c0bd 5838 6abd
00000220: faab 703d 1c77 283d 6d63 5cbc 66f3 44bd
00000230: e8b6 bfbd 911e 9d3d 1346 e23d 8dbb 86bd
00000240: a585 84bd 9ebd ca3d 9dc7 eebd 416a 79bd
00000250: 185e b73c 1d89 f83d bed4 39bd a306 46be
00000260: a180 72bd 2dd6 713d c3b2 2abd 09a9 2c3c
00000270: a21a 50bd d2b6 e8bd a67c 233d 78a4 aa3d
00000280: c515 36bd 9049 89bd 9332 963d 5cdf 2b3d
00000290: c0ea 85bd 4e8d 463d 7279 413d f722 fbbc
000002a0: d315 d2bc ac87 b6bc 54e6 013d 523d bfbc
000002b0: 0782 033c a072 6bbd 8e31 92bd 7a6b 3e3d
000002c0: 19e1 ca3d 1197 1bbd cbb4 92bd 0e33 78bd
000002d0: e8c5 afbd 8d0f 91bd 2553 09be 6e6b b4bd
000002e0: e5ad 913d 4b2f d83d 7a07 79bd 7223 8d3d
000002f0: 4d73 edbd 6b74 bebd 9007 7b3d b00e 4c3d
00000300: 1dd2 923d 08ee e53d 19e9 923c 7226 f23c
00000310: 3cc2 db3d 633a bb3d 51e3 253d 9775 2b3c
00000320: 4ddc c7bd f6b2 673d c5a6 163e 751a c73c
00000330: 1154 c5bd 0ee3 b43c 35c2 8bbd a428 c4bd
00000340: 67a6 2d39 4f6c 033e c78c 4f3d a994 983d
00000350: b7a0 aa3b 73b0 b2bd 0bf4 4fbd e984 2ebe
00000360: 7708 8fbd ccea ff3d 5d2b c73b 55e5 ec3d
00000370: bb98 3fbd 0c75 48ba 33a8 a03c 94d0 e03c
00000380: d21d cebd a105 c63d d5a4 9ebd 4d52 1c3e
00000390: b760 09be 6aa0 96bd 32fa 00bd ac55 973c
000003a0: ed69 debd bc66 a03d 2f71 113e a58f a03d
000003b0: 6b92 e8bc 31cc 873d 66d1 c23d 9555 08bd
000003c0: 9931 a33c de39 82bd e4ff 36bd 30fb f53c
000003d0: 8c4e 6abc eb91 873c 30e5 3e3c 2340 e2bd
000003e0: 97ab 76bd cbbf 993c ce51 033d 1f66 d3bd
000003f0: b866 c0bb 300d 453d 89fa a43d 52ce f4bd
0.0008090211 -0.06873684 -0.13122967 -0.04485116 -0.18947612 -0.22006549 -0.024017453 -0.09371964
0.070371404 -0.0009837748 0.069597095 0.02029573 0.008722161 0.05608537 -0.08761022 -0.05734872
-0.08687968 0.16004565 -0.11567456 0.04624712 -0.031968467 -0.008136407 -0.06533652 -0.062354494
-0.046114326 0.036396913 0.039467562 0.06674714 -0.02583135 -0.07865666 -0.022276891 -0.10233824
0.026118182 -0.100733295 -0.13034253 0.10255 -0.037088417 0.034139354 -0.12811333 -0.23024027
0.027615378 0.12919839 -0.0032972244 -0.10299647 -0.052012093 0.107733764 0.049794447 0.08357164
0.081609 -0.058389533 0.066660985 -0.055973176 0.057431195 -0.004585714 -0.06819919 -0.17561167
0.02309706 -0.059365273 -0.06970265 0.034746356 0.050854765 0.0549234 0.09020714 -0.019132664
-0.06840968 0.11300166 0.032503467 0.06547469 0.04456282 0.007040616 -0.029729662 -0.10520374
-0.0919622 0.09594891 0.17219174 0.121753216 0.06792544 0.05078746 0.024309997 0.052018162
0.077615716 -0.0152748795 0.029496664 0.12945801 -0.00998426 0.16672638 -0.065373115 0.024626302
0.074172996 0.1496327 -0.06772354 0.08556868 0.06890175 -0.11819195 -0.06738678 0.023236701
-0.11790638 -0.044830468 -0.1580212 -0.16112664 -0.077706896 -0.010220747 -0.057130933 -0.06325311
0.013402896 -0.21902303 0.0635266 -0.06978846 -0.04895936 0.09132865 -0.066708975 -0.05551337
-0.0008624461 -0.064251795 -0.085529745 0.010991614 0.14437845 0.17926969 -0.22724403 -0.11523857
-0.05032133 -0.10925057 -0.02546034 0.072130635 -0.053994033 0.01568769 0.033393174 -0.0151414
-0.068721876 0.058297034 0.02361575 -0.040455844 -0.032424483 0.06471627 -0.09388665 -0.05718264
0.05875776 0.041129217 -0.013451439 -0.048083685 -0.093610585 0.07671846 0.11048522 -0.06578741
-0.06470803 0.09899448 -0.11659167 -0.060892347 0.022383735 0.12135527 -0.045368902 -0.19338469
-0.0592047 0.059042145 -0.041674387 0.010538348 -0.05080665 -0.11362995 0.039913796 0.08332151
-0.044454355 -0.06703484 0.07333865 0.04196106 -0.06538916 0.048474602 0.04723496 -0.030656321
-0.025645172 -0.02228149 0.0317138 -0.02334467 0.008026606 -0.05748236 -0.07138358 0.046489216
0.09906215 -0.037985865 -0.0716339 -0.060595565 -0.085826695 -0.07083044 -0.13410623 -0.08809553
0.07113246 0.105558954 -0.060798146 0.06891526 -0.115942575 -0.09299549 0.06128651 0.049818695
0.07168982 0.112270415 0.017933415 0.029559348 0.10730407 0.09141996 0.04049999 0.010465047
-0.09758816 0.056567155 0.14712055 0.024304608 -0.09635175 0.022080924 -0.068241514 -0.09578064
0.00016560555 0.12834285 0.050671365 0.0745023 0.005207147 -0.08725061 -0.050769847 -0.17042889
-0.069840364 0.12495956 0.0060781674 0.11567179 -0.046776515 -0.0007646836 0.019611454 0.027443208
-0.100642815 0.096690424 -0.07746283 0.1526577 -0.134158 -0.07354815 -0.031488605 0.018473469
-0.108600475 0.07832095 0.14203332 0.07839898 -0.02839013 0.06630743 0.09512596 -0.033284742
0.019921111 -0.063586935 -0.04467763 0.030027002 -0.014300954 0.016549071 0.011651322 -0.11047389
-0.060222235 0.018768212 0.032060437 -0.103222124 -0.00587162 0.04810828 0.08055598 -0.11953415

functional_1_1/conv2d_5_1/convolution f4 [16, 3, 3, 1]
00000000: 3543 2dbe 2f32 f83b 8d17 273e 9a24 29be
00000010: 99b6 0c3e 17c4 da3d 4754 0c3e e1b7 4dbd
00000020: 22c8 f23d b033 11bc fe4d b53d 0cef ecbd
00000030: aad4 84bd 8c5e 4a3d 8aab 8ebd dabb 1d3e
00000040: 892d 163e 80a1 30be c4f8 553d 6aa6 7b3d
00000050: ed38 81bd 62a8 c9bd 83db 33be 23ad cd3d
00000060: 5737 13bd e51d 3a3e ea64 c3bc 014e e0bd
00000070: cfb5 4f3d 6e2b 7e3d c5aa 92bd 8cfa cbbd
00000080: 8c0c 07be e68a cf3d bb30 b63d b75c ce3d
00000090: a4f3 f43d 6c82 3cbd 5a3b 463e d3a4 343d
000000a0: f645 09be 58ad a5bd 17e9 c63d d8e7 e0bc
000000b0: 3f0f 26be e5f9 273e 5c79 7a3d 9503 813c
000000c0: 5090 8fbd 3c3d 92bd b317 0dbe 43a4 e53d
000000d0: 7851 a5bd b34c 433b d566 32bd 5956 18be
000000e0: 21d4 80bd 5818 393e b389 153e bbc4 80bd
000000f0: 20e9 b6bd 11b1 09be 0b23 413e 26b6 bcbd
00000100: 1945 9f3d a858 413e 0c46 84bd 5e36 82bd
00000110: fa21 32bd 491b acbd a07c c93d e45e 60bc
00000120: aa76 483e fda9 383d e528 3c3e 8865 7a3c
00000130: 068d f9bc 9837 f33d e514 c1bb 562d 2c3d
00000140: 2bd6 cdbd 1763 6e3c 8cd9 aa3d 57f7 64bd
00000150: 3249 febd b9a1 dc3c d133 5a3e 339e 3dbe
00000160: a75c e23b 13e6 f43c 2fed 28be c888 033e
00000170: 01a4 283e 35e2 b5bd 8fc8 93bd 3206 083e
00000180: 8904 083e 4d20 3abe 3739 45bd 46dd 4fbe
00000190: 934e cebd 73e5 503e f237 d73c e6f2 2c3e
000001a0: 6b9b 3d3e dcdd a53d d673 29be 66fa 213e
000001b0: 253e cd3c 5984 e0bd bb26 ec3d 19b5 3b3e
000001c0: 8395 033e cc05 5d3d efc1 773d 3713 47be
000001d0: 627c b9bd 61d8 ff3d 4538 cb3d 0a4f 3e3e
000001e0: b93b 28be 3067 07be 53c5 a33d 9829 fc3d
000001f0: 9fc2 a3bd 605b 5abe 72be 17be 3e59 013e
00000200: b79b 313e 15c2 f93d 35a2 e23d f743 473e
00000210: 2a4b a7bd 72f3 233e f5fd 643d d7dd 0fbe
00000220: 2751 aebc 169a e73d 3c34 94bd 63b3 2e3e
00000230: 51d6 173e 6963 cc3d 9942 c6bd c574 3ebe
-0.16920169 0.0075743417 0.16317578 -0.16517869 0.1374153 0.106819324 0.13704024 -0.05022419
0.118545786 -0.008862421 0.088527665 -0.11569032 -0.06485875 0.049406573 -0.06966312 0.15403691
0.14665808 -0.17249107 0.052239195 0.061438 -0.06309686 -0.098465696 -0.17564206 0.10042789
-0.035941448 0.18175466 -0.02385183 -0.10952378 0.050710496 0.062053137 -0.07161478 -0.099598974
-0.1318838 0.10133915 0.08896013 0.10076278 0.11960533 -0.046022817 0.19358578 0.0441025
-0.13405594 -0.08089703 0.09712427 -0.027454302 -0.16216753 0.16403921 0.061150894 0.015748778
-0.07009947 -0.07140586 -0.13778572 0.11212971 -0.080721796 0.0029800355 -0.0435551 -0.14876689
-0.062904604 0.18075693 0.1460331 -0.06287523 -0.08931184 -0.13446452 0.18861024 -0.092144296
0.07776851 0.18881476 -0.06458673 -0.06358026 -0.043489434 -0.08403642 0.098382235 -0.013694499
0.19576517 0.04508399 0.18374975 0.015282996 -0.030462753 0.11875838 -0.0058923834 0.042035423
-0.10050615 0.014549992 0.08342275 -0.055899944 -0.12416305 0.026932584 0.21308829 -0.1851738
0.0069080177 0.029894864 -0.16496728 0.12845147 0.16468813 -0.08881036 -0.07215988 0.13283613
0.1328298 -0.18176384 -0.048150267 -0.20299253 -0.100735806 0.20400028 0.026271794 0.16889533
0.18516319 0.08098957 -0.16548094 0.15818176 0.025054047 -0.10962743 0.11530825 0.18330802
0.12850003 0.053960606 0.060487684 -0.19440924 -0.09056927 0.12492443 0.09922842 0.18584839
-0.16429032 -0.13222957 0.07996621 0.12312621 -0.079961054 -0.2132392 -0.14818743 0.126317
0.17344557 0.12195221 0.11066095 0.1945952 -0.08168633 0.16010836 0.055906255 -0.14049469
-0.02127893 0.113086864 -0.072365254 0.17060618 0.14827849 0.099798985 -0.09680671 -0.18599232

functional_1_1/conv2d_5_1/Relu;functional_1_1/conv2d_5_1/BiasAdd;functional_1_1/conv2d_5_1/convolution;functional_1_1/conv2d_5_1/Squeeze f4 [16]
00000000: 561a 81bc 55f7 33bc 2dcc a0b9 0951 9f3a
00000010: 3304 fabb 2151 f3bb 665d 193b e657 eebb
00000020: 45ab 01bc a168 75bc d2c8 6cbc daa0 c5bc
00000030: a327 c5bc f95b 6cbc 8818 c23b e8a3 6dbc
-0.015759628 -0.0109842615 -0.000306697 0.0012154888 -0.007629895 -0.007425443 0.0023401617 -0.007273662
-0.007914369 -0.014978559 -0.014452176 -0.024124552 -0.024066752 -0.014426225 0.0059233345 -0.01450441
